…
          "data": {
            "text/plain": [
              "NvidiaStockPredictor_LSTM_Transformer_Hybrid(\n",
              "  (lstm): LSTM(1, 128, num_layers=3, batch_first=True, dropout=0.3)\n",
              "  (transformer_encoder): TransformerEncoder(\n",
              "    (layers): ModuleList(\n",
              "      (0-1): 2 x TransformerEncoderLayer(\n",
              "        (self_attn): MultiheadAttention(\n",
              "          (out_proj): NonDynamicallyQuantizableLinear(in_features=128, out_features=128, bias=True)\n",
              "        )\n",
              "        (linear1): Linear(in_features=128, out_features=256, bias=True)\n",
              "        (dropout): Dropout(p=0.3, inplace=False)\n",
              "        (linear2): Linear(in_features=256, out_features=128, bias=True)\n",
              "        (norm1): LayerNorm((128,), eps=1e-05, elementwise_affine=True)\n",
              "        (norm2): LayerNorm((128,), eps=1e-05, elementwise_affine=True)\n",
              "        (dropout1): Dropout(p=0.3, inplace=False)\n",
              "        (dropout2): Dropout(p=0.3, inplace=False)\n",
              "      )\n",
              "    )\n",
              "  )\n",
              "  (attention): MultiheadAttention(\n",
              "    (out_proj): NonDynamicallyQuantizableLinear(in_features=128, out_features=128, bias=True)\n",
              "  )\n",
              "  (gate): Sequential(\n",
              "    (0): Linear(in_features=256, out_features=128, bias=True)\n",
              "    (1): Sigmoid()\n",
              "  )\n",
              "  (fc1): Linear(in_features=256, out_features=128, bias=True)\n",
              "  (bn1): BatchNorm1d(128, eps=1e-05, momentum=0.1, affine=True, track_running_stats=True)\n",
              "  (fc2): Linear(in_features=128, out_features=64, bias=True)\n",
              "  (bn2): BatchNorm1d(64, eps=1e-05, momentum=0.1, affine=True, track_running_stats=True)\n",
              "  (fc3): Linear(in_features=64, out_features=1, bias=True)\n",
              "  (relu): ReLU()\n",
              "  (drpout): Dropout(p=0.3, inplace=False)\n",
              ")"
            ]
          },
          "metadata": {},
          "execution_count": 11
        }
      ]
    },
    {
      "cell_type": "code",
      "source": [
        "#again usual training loop but made sure it goes all the way uptil 150 by keeping patience high to get the loss down or else it\n",
…
